ml_app/opt/data/spawn_en.tflite (tflite, 14700 bytes, 6 tensors)

dense_1/MatMul_bias f4 [32]
0.40224314 0.17435671 0.39705527 0.29612678 0.17016858 0.2066012 0.43425122 0.32946506
0.28824243 0.23679475 0.37009853 0.30029607 0.2590873 0.25870016 0.42493412 0.26181543
0.3350832 0.19278395 0.47960797 0.3271887 0.21323162 0.09318029 0.27746034 0.22918278
0.22691315 0.25885183 0.26904422 0.33858797 0.1683196 0.23770632 0.32963806 0.34194118
00000000: d0f2 cd3e 918a 323e d44a cb3e ee9d 973e
00000010: ac40 2e3e 448f 533e 2d56 de3e a5af a83e
00000020: 8394 933e 537a 723e 8e7d bd3e 68c0 993e
00000030: 17a7 843e 5974 843e f790 d93e ac0c 863e
00000040: 0690 ab3e 2869 453e 2d8f f53e 4785 a73e
00000050: 6459 5a3e 4fd5 be3d 480f 8e3e e4ae 6a3e
00000060: ec5b 683e 3a88 843e 2ac0 893e 675b ad3e
00000070: f95b 2c3e 4969 733e 52c6 a83e ea12 af3e

dense_1/kernel/transpose f4 [32, 78]
0.021997312 0.1693102 -0.20869642 0.3806278 0.46235365 0.2229774 -0.052633524 -0.3658417
0.113299675 -0.063792035 0.17568217 0.25497237 0.053490732 -0.025496766 -0.20312355 0.065522425
0.1650374 0.08506462 0.40361315 0.20406115 -0.055622317 0.48036358 0.28762326 0.21157049
-0.22411305 0.47363016 -0.132333 0.18917577 -0.057674337 -0.032644812 -0.085340545 0.24560688
-0.078675255 0.010862958 -0.17282909 -0.28957087 -0.19541973 0.50012475 -0.36796373 -0.12402064
-0.20937167 -0.09584524 -0.71547127 0.2795708 -0.14599276 -0.20281729 -0.18501207 0.28224692
-0.20783073 -0.034116343 -0.19420618 0.21962771 -0.21231373 0.15620606 -0.29929733 -0.03757646
0.5153002 0.3689166 0.2912794 -0.18932211 -0.14140949 -0.17520075 -0.036293987 0.040240347
0.13951215 -0.0324448 -0.23072603 -0.043192174 -0.06261629 0.09766999 0.27465016 0.25658414
-0.23997626 -0.25432017 0.04408089 -0.13502118 -0.13062546 -0.19295223 -0.0066250544 0.29020467
-0.23684973 -0.20864482 0.077759676 0.10644878 0.06441201 -0.07549286 -0.07320556 0.066623
-0.18219215 -0.030428775 -0.17480502 0.04867195 -0.06914941 0.110338725 -0.5047332 -0.22096002
-0.1527173 0.085018374 -0.08355675 -0.40049312 -0.05271389 -0.014704869 -0.0541081 0.4512984
-0.30994537 0.36873394 0.05965434 0.10145497 0.20154303 -0.034851227 -0.26655906 -0.017480819
0.18919815 0.053033955 -0.22291797 -0.29947865 -0.2743594 0.44255707 0.4134093 0.13362929
-0.1629554 0.2789668 -0.06420825 0.11740812 0.046343036 -0.03358327 -0.16419402 0.100444645
0.09201326 0.055790484 -0.11677455 0.20088114 -0.16615428 -0.16130844 0.6037304 -0.091292605
0.10906407 0.03102626 0.16580886 0.03410214 0.06593959 0.007671981 0.062233597 -0.031275127
0.39416662 -0.095803216 -0.06509906 0.0969387 -0.18472664 0.03464485 0.013200569 -0.1790787
-0.23474592 -0.074648574 -0.13843723 0.075878486 -0.08074439 0.25415045 0.35427114 -0.27258778
0.096525595 -0.032669645 -0.18454294 0.60525554 0.26265708 -0.19029102 -0.14902076 -0.06065189
-0.23710461 -0.06543438 0.072956875 0.29169336 0.14984608 -0.03226853 0.10257622 -0.0003021214
0.23561674 0.01954512 -0.17338258 0.11703814 0.17532876 0.39582098 -0.17792536 0.37574843
0.2773786 0.24437703 0.5400952 0.04746072 -0.15253362 0.19375505 0.39877877 -0.005416147
0.019274147 0.029944912 -0.24026664 0.14064434 0.48896468 -0.22047924 -0.5141725 -0.04070413
-0.3102015 0.27817184 0.15535285 -0.16707626 -0.0032106393 -0.15639143 0.22174716 0.40381843
-0.09327795 0.43452278 0.102163665 0.28544867 0.22127637 0.08084737 -0.02576525 0.02364058
0.39910686 -0.24017018 -0.10605089 -0.1478533 -0.1456344 -0.038844068 -0.5316835 -0.0490795
0.23614521 0.06670831 0.064752445 -0.20645459 0.27407414 -0.031339604 -0.14014284 0.046872713
0.0795745 0.6120192 -0.22264291 -0.16834086 -0.16876912 0.25670737 0.06680821 -0.0038864762
-0.15125957 -0.2028977 0.34153944 0.021142632 -0.34769017 -0.29960728 -0.2022767 0.01783955
0.09437688 0.28727916 0.3266018 0.17679101 0.25323153 0.1535528 0.2628096 0.103673145
00000000: b533 b43c a75f 2d3e 84b4 55be a6e1 c23e
00000010: 9eb9 ec3e 3054 643e 4096 57bd 9a4f bbbe
00000020: a909 e83d 66a5 82bd 07e6 333e bd8b 823e
00000030: 1919 5b3d 98de d0bc 9fff 4fbe 9f30 863d
00000040: 90ff 283e 5c36 ae3d 62a6 ce3e 68f5 503e
00000050: 3ad4 63bd 37f2 f53e 5b43 933e efa5 583e
00000060: e47d 65be a77f f23e 4d82 07be 4bb7 413e
00000070: ed3b 6cbd 91b6 05bd 06c7 aebd 5f80 7b3e
00000080: 7e20 a1bd 8cfa 313c 1cfa 30be a242 94be
00000090: 1c1c 48be 2d08 003f be65 bcbe 89fe fdbd
000000a0: 8765 56be 824a c4bd 2029 37bf e723 8f3e
000000b0: 207f 15be 56af 4fbe ce73 3dbe ab82 903e
000000c0: 94d1 54be 94bd 0bbd fcdd 46be 16e6 603e
000000d0: c568 59be 7bf4 1f3e 803d 99be c6e9 19bd
000000e0: b7ea 033f a3e2 bc3e 9322 953e a8dd 41be
000000f0: a6cd 10be d367 33be 01a9 14bd 10d3 243d
00000100: 46dc 0e3e d7e4 04bd 7243 6cbe 47ea 30bd
00000110: f83c 80bd 3407 c83d f29e 8c3e ff5e 833e
00000120: 56bc 75be 4136 82be 2a8e 343d fe42 0abe
00000130: aec2 05be 4595 45be fc16 d9bb b595 943e
00000140: bc88 72be fda6 55be 7740 9f3d d101 da3d
00000150: 72ea 833d 009c 9abd ccec 95bd a471 883d
00000160: 9490 3abe c445 f9bc 1600 33be 3d5c 473d
00000170: 359e 8dbd 45f9 e13d 3236 01bf 5843 62be
00000180: ed61 1cbe 1d1e ae3d cd1f abbd 6f0d cdbe
00000190: 85ea 57bd b1ec 70bc 74a0 5dbd 9510 e73e
000001a0: 29b1 9ebe b2ca bc3e 1c58 743d a0c7 cf3d
000001b0: 4c61 4e3e 29c0 0ebd 6e7a 88be ef33 8fbc
000001c0: 29bd 413e 223a 593d 9c44 64be 4455 99be
000001d0: d678 8cbe d796 e23e 62aa d33e 1ed6 083e
000001e0: c8dd 26be bdd4 8e3e 9d7f 83bd ab73 f03d
000001f0: 32d2 3d3d 9c8e 09bd 7a22 28be ecb5 cd3d
00000200: 7371 bc3d 9084 643d 7f27 efbd c9b3 4d3e
00000210: 5924 2abe 0a2e 25be 138e 1a3f 9ef7 babd
00000220: fc5c df3d c92a fe3c ccc9 293e b0ae 0b3d
00000230: 560b 873d 3e65 fb3b a8e8 7e3d 591a 00bd
00000240: 35d0 c93e 7a34 c4bd a852 85bd cc87 c63d
00000250: fb28 3dbe c2e7 0d3d 3347 583c 6860 37be
00000260: 3c61 70be 5ae1 98bd 7dc2 0dbe 2e66 9b3d
00000270: 515d a5bd 0220 823e 0763 b53e a090 8bbe
00000280: 36af c53d 9bd0 05bd d3f8 3cbe 07f2 1a3f
00000290: fd7a 863e a6db 42be e698 18be 1e6e 78bd
000002a0: 8dcb 72be 7602 86bd 6a6a 953d d558 953e
000002b0: 4071 193e 022c 04bd 7b13 d23d 0c66 9eb9
000002c0: 8445 713e 161d a03c 348b 31be b1b1 ef3d
000002d0: 6289 333e 0ca9 ca3e 1132 36be 1962 c03e
000002e0: 9104 8e3e f93d 7a3e ae43 0a3f 2c66 423d
000002f0: c631 1cbe b967 463e bb2c cc3e ef79 b1bb
00000300: d1e4 9d3c 084f f53c 7508 76be 1205 103e
00000310: 9459 fa3e 4fc5 61be cfa0 03bf 60b9 26bd
00000320: bbd2 9ebe 8a6c 8e3e d114 1f3e 0a16 2bbe
00000330: 9769 52bb 1325 20be b011 633e 4ac1 ce3e
00000340: 8308 bfbd c579 de3e 2f3b d13d 5426 923e
00000350: 4696 623e 4e93 a53d a511 d3bc e4a9 c13c
00000360: bc57 cc3e 2cef 75be 3631 d9bd db66 17be
00000370: 2f21 15be f51a 1fbd 691c 08bf 9607 49bd
00000380: 0dd0 713e 5e9e 883d ee9c 843d d568 53be
00000390: 7253 8c3e f55d 00bd 9b81 0fbe 9afd 3f3d
000003a0: f5f7 a23d 4aad 1c3f 81fc 63be 8c61 2cbe
000003b0: d0d1 2cbe 266f 833e bed2 883d 40b4 7ebb
000003c0: cae3 1abe 6ac4 4fbe 42de ae3e 5033 ad3c
000003d0: 7204 b2be 2066 99be a021 4fbe 3f24 923c
000003e0: aa48 c13d 4116 933e 5a38 a73e b408 353e
000003f0: 90a7 813e f23c 1d3e fb8e 863e 9652 d43d

dense_2/MatMul_bias f4 [16]
0.1688482 0.051099963 0.088566944 0.24377334 0.10875444 0.09198465 0.059263166 0.11804111
0.032466765 0.13216 0.19569288 0.19919541 0.24547446 0.28160572 0.104654126 -0.0028254674
00000000: 8be6 2c3e 324e 513d 9662 b53d b89f 793e
00000010: a6ba de3d 7362 bc3d efbd 723d 8abf f13d
00000020: dffb 043d f354 073e b763 483e e2f9 4b3e
00000030: a85d 7b3e a02e 903e e754 d63d 7a2b 39bb

dense_2/kernel/transpose f4 [16, 32]
-0.30637395 0.35454124 0.28007817 -0.41048306 0.13921909 0.34017608 0.03020639 0.4462378
0.2501267 0.036254764 -0.19226564 0.7515234 0.060271062 0.16587757 0.12270523 -0.6531828
0.5338567 0.67767173 0.42462456 -0.5172909 -0.66892684 0.20667364 0.65409267 -0.33216715
-0.23721395 0.42614248 0.5565327 -0.726962 0.646312 -0.057320595 -0.1538722 -0.2845953
0.69133323 0.69627494 0.54705036 0.35011485 -0.049001515 -0.08679413 0.61623174 -0.17087989
-0.09572208 -0.611788 0.3145029 0.50860983 -0.06975755 -0.08534016 0.0695471 -0.002348801
0.22445585 -0.47675675 0.3609459 0.20362459 0.27051026 -0.014108252 -0.6621431 -0.17813218
-0.4411545 -0.18280604 -0.36029792 0.6860814 -0.6182188 0.008520195 0.49802458 -0.21229987
-0.11646019 -0.0183685 0.47905114 0.46782517 0.46146667 0.28484508 -0.37516958 0.41100577
-0.10348763 -0.5945121 -0.10698253 -0.31429183 0.5610182 -0.24943139 -0.64703226 0.043761317
-0.21470729 0.81176716 0.4355297 0.32128894 0.55283755 0.68383276 -0.16341023 0.33597547
-0.5092779 -0.50802493 -0.28652826 -0.19421352 0.2667268 -0.09098889 0.08760873 0.1072204
-0.072995685 -0.72989005 0.058356605 0.467971 0.51620704 0.04661622 0.5017264 -0.061902046
-0.28826082 0.11138384 0.3946387 -0.37692666 0.7648632 0.59355724 -0.75933826 0.29764032
0.32631537 0.2215123 -0.24960113 -0.11784181 0.67737895 0.44845042 0.5131566 0.44102177
-0.12926142 0.20722808 0.23512185 -0.22887039 -0.002748199 0.8613025 0.70091075 0.41393518
0.70276296 0.045816783 -0.33774516 -0.37950924 0.32081985 0.4323405 0.017507413 -0.50476396
-0.013834966 -0.3485083 -0.18295226 0.09952118 0.4028767 0.22003376 -0.42729008 0.39931816
0.5471074 0.3012842 0.5887516 -0.48057252 -0.22552541 -0.029577704 0.7326153 0.7671821
-0.09920563 0.7066234 0.2327217 0.56585735 0.4460687 0.20664822 0.62158674 -0.38214457
0.020524682 0.3294555 -0.44710347 0.48627585 0.54773664 -0.49537298 0.58132875 -0.122849636
0.31210983 -0.5600103 -0.17587954 0.49183935 0.28494087 -0.7323904 0.3504135 0.30604544
0.060368992 0.68213546 -0.19037893 0.65078235 0.7613606 0.45827776 -0.11005609 0.8147264
0.31679362 0.627986 -0.32420143 -0.15939692 0.16523135 0.022400891 -0.28156286 -0.22670057
-0.05079694 -0.22382729 0.2832543 -0.4843851 -0.50784874 0.47531185 -0.44837773 -0.5267618
0.046055447 0.20334181 0.5813873 0.17810954 0.5312627 -0.36723122 0.044222817 0.46777782
0.4034912 -0.21050136 0.44564214 -0.34986615 0.16538402 0.17069136 -0.5320841 -0.11499375
-0.15324478 0.018424267 0.15882346 0.46558025 -0.116089314 0.18256935 0.40151194 -0.1769828
-0.7848316 -0.17323214 0.3755117 -0.33183044 -0.25188947 -0.0437986 -0.26808572 0.41024137
0.43997544 -0.052928798 0.53973275 0.52813977 0.3553711 -0.13683985 -0.27339116 0.19617198
0.36761054 -0.004468645 0.33733407 0.0858971 -0.3381402 -0.41517207 -0.33705786 -0.36474174
-0.05286131 0.42125311 0.21024954 -0.27753302 0.51587534 -0.10709826 -0.1268746 -0.04387176
00000000: 0cdd 9cbe 6e86 b53e 6866 8f3e d62a d2be
00000010: 738f 0e3e 8f2b ae3e 6473 f73c 4879 e43e
00000020: 9b10 803e e07f 143d 49e1 44be d663 403f
00000030: cade 763d cfdb 293e e14c fb3d fd36 27bf
00000040: d5aa 083f e57b 2d3f 6468 d93e 2d6d 04bf
00000050: ca3e 2bbf 41a2 533e 9e72 273f d011 aabe
00000060: 37e8 72be 592f da3e ed78 0e3f 2e1a 3abf
00000070: b474 253f 00c9 6abd ad90 1dbe 7ab6 91be
00000080: 37fb 303f 133f 323f 7e0b 0c3f 4142 b33e
00000090: d0b5 48bd 1fc1 b1bd 5dc1 1d3f 23fb 2ebe
000000a0: f009 c4bd 239e 1cbf 8606 a13e 4134 023f
000000b0: 0cdd 8ebd d2c6 aebd b66e 8e3d 57ee 19bb
000000c0: c1d7 653e 7619 f4be e7cd b83e f782 503e
000000d0: 5280 8a3e 4c26 67bc 3682 29bf 4868 36be
000000e0: 01df e1be 8231 3bbe f878 b8be 08a3 2f3f
000000f0: 9643 1ebf 4a98 0b3c 14fd fe3e 2365 59be
00000100: ae82 eebd 8979 96bc 3146 f53e c886 ef3e
00000110: 5c45 ec3e 37d7 913e 3a16 c0be 596f d23e
00000120: 53f1 d3bd f231 18bf a819 dbbd dcea a0be
00000130: e49e 0f3f f16a 7fbe e8a3 25bf 113f 333d
00000140: 3adc 5bbe f9cf 4f3f c0fd de3e fc7f a43e
00000150: c386 0d3f aa0f 2f3f 0355 27be fa04 ac3e
00000160: 0960 02bf ec0d 02bf d5b3 92be e9df 46be
00000170: 6a90 883e 6258 babd 356c b33d 5e96 db3d
00000180: c37e 95bd 13da 3abf 5607 6f3d e599 ef3e
00000190: 2526 043f a6f0 3e3d 2471 003f 008d 7dbd
000001a0: ec96 93be 361d e43d 150e ca3e 88fc c0be
000001b0: 13ce 433f 5ef3 173f fe63 42bf 5064 983e
000001c0: cf12 a73e 1fd4 623e 7097 7fbe 0c57 f1bd
000001d0: b568 2d3f 4b9b e53e 3b5e 033f 9bcd e13e
000001e0: 1b5d 04be 9933 543e c8c3 703e 005d 6abe
000001f0: 211b 34bb 527e 5c3f e36e 333f 50ef d33e
00000200: 46e8 333f 61aa 3b3d efec acbe 094f c2be
00000210: 8042 a43e bc5b dd3e b56b 8f3c 3638 01bf
00000220: 0eac 62bc ae6f b2be d657 3bbe c3d1 cb3d
00000230: db45 ce3e 8850 613e c4c5 dabe 6e73 cc3e
00000240: 3b0f 0c3f ec41 9a3e 6db8 163f 9a0d f6be
00000250: 22f0 66be f14c f2bc ad8c 3b3f 0c66 443f
00000260: 522c cbbd 45e5 343f 994e 6e3e 07dc 103f
00000270: 1e63 e43e 979b 533e 4f20 1f3f 74a8 c3be
00000280: 6123 a83c 64ae a83e bfea e4be 26f9 f83e
00000290: 7838 0c3f 87a1 fdbe f6d1 143f 9798 fbbd
000002a0: dccc 9f3e d65c 0fbf c419 34be 5ed2 fb3e
000002b0: c5e3 913e f07d 3bbf 6669 b33e fdb1 9c3e
000002c0: 7a45 773d 6ea0 2e3f b2f2 42be ac99 263f
000002d0: 87e8 423f 62a3 ea3e 1665 e1bd e991 503f
000002e0: c632 a23e b1c3 203f bbfd a5be f238 23be
000002f0: 6832 293e 1382 b73c 0229 90be 3224 68be
00000300: 7410 50bd fb32 65be b506 913e 5301 f8be
00000310: 6002 02bf 135c f33e c491 e5be dcd9 06bf
00000320: a3a4 3c3d d638 503e ccd5 143f 5962 363e
00000330: d500 083f bb05 bcbe fc22 353d 9380 ef3e
00000340: 6696 ce3e ab8d 57be 352b e43e a821 b3be
00000350: 6e5a 293e b7c9 2e3e aa36 08bf d881 ebbd
00000360: 33ec 1cbe 7dee 963c 9ea2 223e 8960 ee3e
00000370: 3cc0 edbd 76f3 3a3e f992 cd3e fb3a 35be
00000380: b9ea 48bf c463 31be 1243 c03e aee5 a9be
00000390: a8f7 80be 2966 33bd 8842 89be 280b d23e
000003a0: 7644 e13e decb 58bd ed2b 0a3f 2b34 073f
000003b0: 33f3 b53e bf1f 0cbe edf9 8bbe 4fe1 483e
000003c0: 7337 bc3e b66d 92bb 0db7 ac3e d2ea af3d
000003d0: b620 adbe 6f91 d4be d992 acbe 6ebf babe
000003e0: 1a85 58bd 7dae d73e a84b 573e cf18 8ebe
000003f0: 6810 043f 5556 dbbd 6aeb 01be e0b2 33bd

dense_3/MatMul_bias f4 [15]
-0.06541231 0.048427638 0.24363671 -0.055269033 -0.053652696 -0.032670338 -0.0565111 0.116897695
-0.17171273 0.024723344 -0.09602048 0.040766317 -0.07689586 0.02637655 -0.001614534
00000000: e4f6 85bd 0f5c 463d e77b 793e c861 62bd
00000010: eec2 5bbd 55d1 05bd 2f78 67bd 0f68 ef3d
00000020: 76d5 2fbe 9c88 ca3c 63a6 c4bd 95fa 263d
00000030: 947b 9dbd a213 d83c c59e d3ba

dense_3/kernel/transpose f4 [15, 16]
0.20719409 0.34476897 0.35982537 -0.019328866 -0.3523369 0.3859266 -0.5319661 -0.49446142
-0.96239096 0.2962636 0.51287484 0.35829693 -0.5125425 -0.96159095 -1.2038845 -0.39609346
-0.2956292 0.28492475 -1.1794477 0.6310503 0.62788373 0.052738857 0.41675264 -0.46274316
-0.035059575 0.06190532 -0.21602479 -1.1560827 -1.3220847 0.40123752 -0.25518465 -0.9439182
-0.15358733 -0.117293514 -1.0269144 0.07075999 -0.22453402 -0.49571595 -0.98927075 -0.9265618
-0.1262191 -0.36377436 0.3544585 0.15614265 0.3512929 0.8167623 -1.3995876 -0.73685056
-0.718308 0.72805905 -0.069105215 -1.1417066 -0.49624178 0.45773265 -0.5641484 -0.38867736
0.39198503 -0.29903764 -0.25043964 0.6782677 -0.16816261 0.18838416 -0.19858755 -0.62600535
0.36548656 -0.81657666 0.23246285 -0.029290684 -0.2292162 -0.6414681 0.3310076 0.52901447
-0.20294552 -0.65568733 -0.22278188 -0.18935506 -0.06281095 0.09755016 -0.56892604 -0.03212184
0.46570426 -0.0019650152 -0.40030733 -1.225583 -1.0508335 -0.96277153 -0.08381272 0.4338149
-0.13334824 -0.8385656 -0.32377663 0.30314434 -0.43877688 0.31154492 0.39336693 -1.1177869
-1.0166862 -0.5237827 0.4936456 0.26480657 0.09661924 0.5129603 -0.081043854 -0.37812215
0.6081525 -0.5767294 -0.6393844 -0.9113932 0.13853626 -0.056509614 0.3810896 0.069169745
-0.81656533 -0.8173866 -0.53019756 0.009290116 -0.71342474 0.66302115 -1.0062724 0.18101661
-0.5558986 0.18189184 0.15177919 -0.7127292 0.55082655 -0.969207 0.03261272 0.10780365
-0.61891556 0.61387813 -0.6529921 -0.91634476 0.47252247 -0.48909193 0.45227352 -0.73241496
0.17875971 -0.7687781 -0.26938784 -0.14923191 -0.45506155 0.044986136 0.30444032 0.57641166
0.51515406 -0.8098299 0.59687066 0.23054719 0.45995808 -0.6734261 -0.80326986 -1.195884
0.3907465 0.12279539 -1.048545 -0.69355625 -0.16659133 -0.03218231 -0.4603817 -0.4765301
0.14688356 -0.55353713 -0.79206574 0.124216676 0.27543122 -0.890208 0.050459325 -0.040868137
0.115006134 -0.44381484 0.10125318 -0.6507529 0.41238517 -1.2991408 0.2532993 0.6988341
0.360191 -1.0910615 -0.53564507 -0.9829898 0.26994807 0.67426145 -0.6688878 0.10184036
-0.20326284 -0.67341787 -0.47853956 0.11848743 -0.13447486 -0.3234142 0.6303836 -0.7052786
-0.95196414 0.4813299 -0.50382143 -0.034434337 -0.7425752 -0.683475 0.074640594 0.029141178
-0.10905633 -0.9283887 -1.1212295 0.15887168 0.6204421 0.086524636 0.42478696 -0.33068222
0.6802936 -0.7662792 -0.5441436 -0.32508275 0.1881498 0.08880748 -0.9183155 0.3858742
-0.028647682 -0.67315567 0.5761006 0.34033933 -0.9885645 -0.9482432 -0.99000895 -0.42392987
-0.11143992 -0.770027 -0.26121756 -1.098028 -1.2319754 -0.5713877 -0.13724993 -0.49941343
-0.8114937 0.4116225 0.56428665 0.5198719 0.67208844 -0.1099383 -0.21245222 -0.7451595
00000000: b02a 543e 8f85 b03e 083b b83e 9257 9ebc
00000010: 8165 b4be 2c98 c53e ee2e 08bf 0c2a fdbe
00000020: 415f 76bf ddaf 973e c44b 033f b272 b73e
00000030: fc35 03bf d32a 76bf e318 9abf c3cc cabe
00000040: b65c 97be a8e1 913e 24f8 96bf 838c 213f
00000050: fdbc 203f b304 583d 9a60 d53e acec ecbe
00000060: a19a 0fbd 6f90 7d3d 9a35 5dbe 85fa 93bf
00000070: 123a a9bf 016f cd3e 90a7 82be a0a4 71bf
00000080: ff45 1dbe 9537 f0bd ee71 83bf 9dea 903d
00000090: 3fec 65be 7bce fdbe d940 7dbf 2733 6dbf
000000a0: 943f 01be a240 babe 967b b53e dce3 1f3e
000000b0: aadc b33e 5617 513f b025 b3bf 3da2 3cbf
000000c0: 08e3 37bf 1462 3a3f 0987 8dbd 7123 92bf
000000d0: 6713 febe ef5b ea3e 086c 10bf b800 c7be
000000e0: 43b2 c83e 761b 99be a039 80be f4a2 2d3f
000000f0: d232 2cbe c7e7 403e 895a 4bbe e341 20bf
00000100: 0e21 bb3e 2b0b 51bf be0a 6e3e 04f3 efbc
00000110: a7b7 6abe 4137 24bf d479 a93e 7e6d 073f
00000120: f3d0 4fbe 20db 27bf ef20 64be 4be6 41be
00000130: 07a3 80bd 61c8 c73d 23a5 11bf 3192 03bd
00000140: ca70 ee3e 7cc7 00bb 15f5 ccbe e7df 9cbf
00000150: b681 86bf 3278 76bf 01a6 abbd fd1c de3e
00000160: 718c 08be 3cac 56bf 0dc6 a5be bc35 9b3e
00000170: 5da7 e0be d182 9f3e 6467 c93e a413 8fbf
00000180: c622 82bf 9f16 06bf 1ebf fc3e ba94 873e
00000190: 4fe0 c53d 5e51 033f 52fa a5bd 3a99 c1be
000001a0: e2af 1b3f 8aa4 13bf b2ae 23bf 1151 69bf
000001b0: 73dc 0d3e a076 67bd 2d1e c33e dea8 8d3d
000001c0: 6d0a 51bf 4040 51bf 07bb 07bf 9235 183c
000001d0: 01a3 36bf c1bb 293f 89cd 80bf 6b5c 393e
000001e0: 5f4f 0ebf db41 3a3e 016c 1b3e 6c75 36bf
000001f0: f802 0d3f f31d 78bf ea94 053d 29c8 dc3d
00000200: 4071 1ebf 1e27 1d3f 7e2a 27bf 9295 6abf
00000210: 77ee f13e 426a fabe 6590 e73e 8c7f 3bbf
00000220: c90c 373e a4ce 44bf 34ed 89be 40d0 18be
00000230: d4fd e8be 6243 383d 9adf 9b3e b78f 133f
00000240: 23e1 033f 0351 4fbf 84cc 183f 9014 6c3e
00000250: a07f eb3e a765 2cbf 18a3 4dbf ba12 99bf
00000260: ed0f c83e 267c fb3d b936 86bf e78c 31bf
00000270: eb96 2abe 99d1 03bd 26b7 ebbe c1fb f3be
00000280: a568 163e 9cb4 0dbf d2c4 4abf 5065 fe3d
00000290: 5205 8d3e ace4 63bf 70ae 4e3d 5965 27bd
000002a0: 5688 eb3d b33b e3be d45d cf3d be97 26bf
000002b0: 2624 d33e 3f4a a6bf 72b0 813e cbe6 323f
000002c0: f46a b83e e7a7 8bbf 0920 09bf 38a5 7bbf
000002d0: a236 8a3e 669c 2c3f 3b3c 2bbf ae91 d03d
000002e0: 2224 50be 1d65 2cbf 2303 f5be 8aa9 f23d
000002f0: c7b3 09be 8c96 a5be d260 213f 238d 34bf
00000300: ecb3 73bf df70 f63e 71fa 00bf 050b 0dbd
00000310: 6919 3ebf 38f8 2ebf 2bdd 983d 7bb9 ee3c
00000320: ed58 dfbd e2aa 6dbf 7384 8fbf 42af 223e
00000330: 4bd5 1e3f d433 b13d ad7d d93e 2e4f a9be
00000340: b927 2e3f e02a 44bf ff4c 0bbf 3f71 a6be
00000350: 57aa 403e b2e0 b53d b916 6bbf 4e91 c53e
00000360: 8bae eabc ee53 2cbf 547b 133f f540 ae3e
00000370: 9012 7dbf 11c0 72bf 3a71 7dbf 560d d9be
00000380: 9d3a e4bd 7d20 45bf 4fbe 85be 2e8c 8cbf
00000390: 5fb1 9dbf 7746 12bf 3f8b 0cbe 1eb3 ffbe
000003a0: 0dbe 4fbf 2fc0 d23e 1775 103f 5316 053f
000003b0: fd0d 2c3f 5527 e1bd 138d 59be c6c2 3ebf
